DNN-sMPD-3.pt (torch, 3639 bytes, 6 tensors)

sMPD_1.w f4 [1, 16, 1]
00000000: cb75 133f baa1 123f 0f8a 133f 6c13 133f
00000010: 06bf 123f 7c49 133f 854a 133f d29e 123f
00000020: e5f6 123f 3bae 123f 0fac 133f 1a28 133f
00000030: ee94 133f 60df 133f 944c 133f d2e2 123f
0.5760161 0.57278025 0.57632536 0.5745151 0.5732273 0.57534003 0.5753558 0.5727359
0.5740798 0.57297105 0.57684416 0.57483065 0.57649124 0.5776272 0.57538724 0.5737735

sMPD_1.b f4 [1, 16, 1]
00000000: 737d cc3e 7b08 ce3e 6710 d03e 8538 ce3e
00000010: e9d4 d33e 5b15 ce3e f29d cf3e 35e8 d13e
00000020: 7ef8 cf3e c151 cd3e 86b1 cf3e 780e d13e
00000030: 056b cf3e 505f cd3e b073 d13e 67df cf3e
0.3993946 0.40240845 0.40637514 0.40277496 0.41373375 0.40250668 0.4055019 0.40997472
0.40619272 0.40101436 0.40565127 0.4083135 0.40511337 0.4011178 0.40908575 0.4060013

sMPD_2.w f4 [1, 16, 1]
00000000: 1fe1 563f e02c 583f 8423 583f 0e64 563f
00000010: b6f0 563f af6e 583f c6e1 593f bd20 563f
00000020: bb1d 573f 1678 563f a3b2 573f f209 593f
00000030: 0a78 583f 4c36 593f 4e12 573f 2949 583f
0.8393726 0.84443474 0.8442919 0.8374642 0.83961046 0.8454389 0.8511013 0.83643705
0.8402974 0.83776987 0.84256953 0.847808 0.84558165 0.84848475 0.84012306 0.84486634

sMPD_2.b f4 [1, 16, 1]
00000000: b2b2 7f3c db18 853c a438 a13c c567 923c
00000010: 9504 b23c 058d 873c 7c5c 973c 6abc b93c
00000020: 3e3d d23c 2eac 893c 66bd a03c 12a1 a43c
00000030: 7d9c b73c 2cdf 8d3c f661 7b3c e740 713c
0.015606569 0.016247204 0.019680329 0.017871747 0.0217307 0.016546736 0.018476717 0.02267285
0.025663968 0.016805734 0.019621562 0.020096336 0.022413487 0.01731833 0.01534318 0.014724947

sMPD_3.w f4 [1, 16, 1]
00000000: 0000 003f 0000 003f 0000 003f 0000 003f
00000010: 0000 003f 0000 003f 0000 003f 0000 003f
00000020: 0000 003f 0000 003f 0000 003f 0000 003f
00000030: 0000 003f 0000 003f 0000 003f 0000 003f
0.5 0.5 0.5 0.5 0.5 0.5 0.5 0.5
0.5 0.5 0.5 0.5 0.5 0.5 0.5 0.5

sMPD_3.b f4 [1, 16, 1]
00000000: 0000 003f 0000 003f 0000 003f 0000 003f
00000010: 0000 003f 0000 003f 0000 003f 0000 003f
00000020: 0000 003f 0000 003f 0000 003f 0000 003f
00000030: 0000 003f 0000 003f 0000 003f 0000 003f
0.5 0.5 0.5 0.5 0.5 0.5 0.5 0.5
0.5 0.5 0.5 0.5 0.5 0.5 0.5 0.5
