DNN-sMPD-6.pt (torch, 6719 bytes, 12 tensors)

sMPD_1.w f4 [1, 16, 1]
000000 7f fd 14 3f 87 89 15 3f fc 04 16 3f dc c9 15 3f
       0.58199304 0.58412975 0.58601356 0.5851114
000010 c9 db 14 3f 98 42 14 3f 6a 4b 14 3f c8 d1 13 3f
       0.58147866 0.57914114 0.5792757 0.57741976
000020 f4 1c 14 3f 2b f3 14 3f b1 98 16 3f fb 02 14 3f
       0.5785668 0.58183545 0.5882674 0.5781705
000030 fd a9 12 3f a9 ab 13 3f f2 c3 15 3f 2e 1e 15 3f
       0.5729063 0.5768381 0.58502114 0.58249176

sMPD_1.b f4 [1, 16, 1]
000000 7a 60 bf 3e 8c 60 bf 3e a4 1c c5 3e f9 30 c3 3e
       0.37378293 0.37378347 0.38498414 0.381233
000010 5b 0a bf 3e 2c e8 c2 3e 51 7c be 3e 77 e6 c3 3e
       0.37312588 0.38067758 0.3720422 0.38261768
000020 7c bb be 3e ab 45 bf 3e 5c be c4 3e 0f 9d c0 3e
       0.37252414 0.3735784 0.38426483 0.37619826
000030 32 8d bf 3e ec 8e c0 3e 3b 19 c5 3e cb 3c c3 3e
       0.3741241 0.3760904 0.38495812 0.3813232

sMPD_2.w f4 [1, 16, 1]
000000 1c 34 57 3f 4e c6 55 3f 59 14 5b 3f f7 11 5d 3f
       0.8406389 0.83505714 0.85577923 0.8635554
000010 86 7f 5a 3f 7a 06 55 3f 82 86 57 3f e8 b8 54 3f
       0.85350835 0.8321301 0.8418962 0.83094645
000020 c4 3e 55 3f 03 04 54 3f b1 1c 5a 3f b4 d5 56 3f
       0.832989 0.8281862 0.8520003 0.83919835
000030 41 69 52 3f 97 6c 58 3f 46 b8 59 3f 50 ac 5a 3f
       0.82191855 0.84540695 0.85046804 0.8541918

sMPD_2.b f4 [1, 16, 1]
000000 95 ce 52 3e 0b 47 54 3e 23 48 45 3e 8a ad 45 3e
       0.20586617 0.20730226 0.19265799 0.19304481
000010 d0 8d 3b 3e cb 2a 4a 3e 08 32 56 3e 27 03 5a 3e
       0.18315816 0.19742887 0.20917523 0.21290265
000020 0c 1c 5a 3e ad 82 66 3e bd 23 62 3e a0 a0 62 3e
       0.21299762 0.22510786 0.22083946 0.22131586
000030 86 f1 55 3e 4f eb 59 3e f4 50 3f 3e 32 ae 48 3e
       0.20892915 0.2128117 0.18683225 0.195977

sMPD_3.w f4 [1, 16, 1]
000000 3e a9 52 3f f7 92 52 3f 1e f9 52 3f 24 b9 53 3f
       0.82289493 0.822555 0.8241137 0.8270438
000010 23 e4 53 3f 76 71 54 3f d3 87 52 3f b5 f3 50 3f
       0.82769984 0.8298563 0.822385 0.8162187
000020 8e 93 51 3f 13 bf 53 3f e6 b7 53 3f 1d 37 51 3f
       0.81865776 0.8271343 0.8270248 0.8172472
000030 b7 43 52 3f 6d c5 51 3f fe 99 52 3f b6 3d 53 3f
       0.82134575 0.8194187 0.82266223 0.8251604

sMPD_3.b f4 [1, 16, 1]
000000 93 ef be 3d ae 87 c2 3d 83 f8 b2 3d 06 6c 9e 3d
       0.09323039 0.09498535 0.08738806 0.077354476
000010 10 6a 9a 3d ec 73 ad 3d 37 72 89 3d f4 5f a8 3d
       0.07539761 0.08469376 0.06711238 0.082214266
000020 01 3f bb 3d 1b d1 aa 3d f8 83 c3 3d ec f2 c8 3d
       0.091428764 0.08340665 0.095466554 0.09811959
000030 b8 c7 a2 3d 81 fe b6 3d 88 3f b3 3d 35 4e ae 3d
       0.079482496 0.089352615 0.08752352 0.085110106

sMPD_4.w f4 [1, 16, 1]
000000 a7 53 4b 3f ee 49 4a 3f 95 1c 4a 3f d1 83 4a 3f
       0.7942452 0.7901906 0.7894986 0.79107386
000010 2d a5 4b 3f cd bd 49 3f 7f 2e 49 3f 87 71 49 3f
       0.79548913 0.7880524 0.7858657 0.78688854
000020 0e 67 48 3f f3 66 49 3f 62 f4 4a 3f ff 14 4a 3f
       0.7828225 0.78672713 0.7927915 0.7893829
000030 78 46 4b 3f 23 b0 49 3f 20 4a 4b 3f 4c c9 4b 3f
       0.794044 0.7878439 0.7940998 0.7960403

sMPD_4.b f4 [1, 16, 1]
000000 12 d7 64 3d a3 98 77 3d fd 46 62 3d 24 a9 6e 3d
       0.05586917 0.0604483 0.05524348 0.058266774
000010 5e 5b 5e 3d a4 38 5e 3d ee 0f 63 3d e2 ba 3f 3d
       0.054286353 0.054253235 0.055435114 0.046809085
000020 16 a4 68 3d cb 0c 6a 3d 88 39 6e 3d 5e 91 5e 3d
       0.05679711 0.057141107 0.058160335 0.05433785
000030 ea 82 6e 3d a4 7d 71 3d 33 57 57 3d 4b 5e 65 3d
       0.058230318 0.05895771 0.052573394 0.055998128

sMPD_5.w f4 [1, 16, 1]
000000 33 29 45 3f 31 fe 44 3f 35 a8 44 3f 60 82 45 3f
       0.7701599 0.76950365 0.76819164 0.7715206
000010 09 d8 45 3f 16 93 44 3f a4 bb 42 3f 58 27 44 3f
       0.7728277 0.76786935 0.76067567 0.76622534
000020 b0 4e 42 3f 28 66 45 3f 0a 4c 46 3f 3d 5d 44 3f
       0.7590132 0.77109003 0.77459776 0.7670477
000030 68 64 45 3f 8b 10 44 3f 11 d1 45 3f f5 51 45 3f
       0.7710633 0.7658774 0.77272135 0.7707818

sMPD_5.b f4 [1, 16, 1]
000000 17 a6 60 3d 16 f5 2b 3d bd e8 22 3d b6 7f 42 3d
       0.054845896 0.04198178 0.039772738 0.047485076
000010 52 ab 2f 3d c0 ee 56 3d 3f 76 3a 3d 64 c5 38 3d
       0.042887993 0.052473783 0.045522925 0.04511012
000020 63 f4 4e 3d 7e 98 43 3d 07 0a 21 3d fd 35 51 3d
       0.050526034 0.04775285 0.039316203 0.051076878
000030 0b 0d 38 3d c7 80 48 3d 42 63 3d 3d 57 f0 5e 3d
       0.044934314 0.048950937 0.046237238 0.054428425

sMPD_6.w f4 [1, 16, 1]
000000 00 00 00 3f 00 00 00 3f 00 00 00 3f 00 00 00 3f
       0.5 0.5 0.5 0.5
000010 00 00 00 3f 00 00 00 3f 00 00 00 3f 00 00 00 3f
       0.5 0.5 0.5 0.5
000020 00 00 00 3f 00 00 00 3f 00 00 00 3f 00 00 00 3f
       0.5 0.5 0.5 0.5
000030 00 00 00 3f 00 00 00 3f 00 00 00 3f 00 00 00 3f
       0.5 0.5 0.5 0.5

sMPD_6.b f4 [1, 16, 1]
000000 00 00 00 3f 00 00 00 3f 00 00 00 3f 00 00 00 3f
       0.5 0.5 0.5 0.5
000010 00 00 00 3f 00 00 00 3f 00 00 00 3f 00 00 00 3f
       0.5 0.5 0.5 0.5
000020 00 00 00 3f 00 00 00 3f 00 00 00 3f 00 00 00 3f
       0.5 0.5 0.5 0.5
000030 00 00 00 3f 00 00 00 3f 00 00 00 3f 00 00 00 3f
       0.5 0.5 0.5 0.5
